models/human_activity/server.pt (torch, 15233 bytes, 2 tensors)

weight f4 [6, 561]
000000 64 b9 a5 b9 b2 89 b9 3c f6 54 0e bd 63 89 fe bc
       -0.0003160938 0.022648666 -0.034748994 -0.03107137
000010 46 36 85 bc 49 7e 39 3c 72 49 5b ba f1 1d 09 3d
       -0.016261231 0.011321613 -0.0008365131 0.03347582
000020 7b 8c 75 bb 8f 0a 37 3c ff 0c 51 bc 85 f8 07 bc
       -0.0037467766 0.011171951 -0.012759446 -0.008298998
000030 27 36 25 bd ab 0f e5 bc fd 92 8e bc 7d fe cc 3a
       -0.040334847 -0.027961573 -0.017404074 0.0015639808
000040 b3 bb 88 3c 1d 87 cf 3c 25 7a ea bc ad 9c 96 bc
       0.016691064 0.025332982 -0.028622696 -0.018385256
000050 d1 3f 7b 3c 09 9a 0f 3d d9 5b 0e bc 72 68 01 3d
       0.015335039 0.03505901 -0.00868889 0.031593747
000060 e0 fd de bb e5 63 92 3b 42 96 1c 3d d1 6c 20 bd
       -0.0068051666 0.0044674748 0.038229235 -0.039166275
000070 71 bc d9 bc 6d 1f 2f bc 9a d1 86 bc 1b 6a 15 3d
       -0.026579114 -0.010688645 -0.016457368 0.036478143
000080 03 2f e0 bc b7 36 9f bc e7 a2 f1 bc 69 f6 21 bd
       -0.027366167 -0.01943527 -0.029496623 -0.039541636
000090 73 e5 c9 bc 31 a7 14 3d fe 54 9a 3c cb a1 a7 3c
       -0.024645543 0.03629226 0.018839356 0.020462891
0000a0 6d 84 11 3b ef 51 b1 bc af 0f ea 3b 85 77 21 bd
       0.0022204176 -0.021645514 0.007142983 -0.039420623
0000b0 56 e9 f9 bc f8 4d b2 bc 66 38 da 3c f4 c9 ca 3c
       -0.030506771 -0.021765694 0.026638221 0.024754502
0000c0 dc 63 99 bc cf ac c7 ba e0 33 dd 3c 2f eb 2b 3d
       -0.018724374 -0.0015233996 0.027002275 0.041972335
0000d0 ac 44 89 3c 79 e5 ba 3b 16 e6 e7 3c a3 a5 cb bc
       0.016756378 0.005703625 0.028307956 -0.024859255
0000e0 7b e6 00 3c 7c 13 06 bd 1d b7 ef bc 41 ab b2 bc
       0.007867451 -0.032733425 -0.02926212 -0.021810176
0000f0 ca 7e 9c 3c 04 18 8b 3c f9 df cc bc 3b fa 50 3c
       0.019103426 0.016979225 -0.025009142 0.012754972
000100 fc de bd 3c 11 9e ae bb 9e 4a d3 3a 1e 47 20 3c
       0.023177616 -0.0053289016 0.001612026 0.009782581
000110 47 91 d6 3c ac 0c 26 3d 36 44 05 bd cd 7f 7d bc
       0.02619232 0.04053943 -0.032535754 -0.015472365
000120 d1 ed 87 3c a3 48 0f 3d df 7c 16 3d be 96 18 3d
       0.016592892 0.03498138 0.03674018 0.037253134
000130 39 aa 09 3c 38 61 16 bd 79 89 7e 3b 3e 60 d8 bc
       0.008402401 -0.03671381 0.0038839264 -0.02641308
000140 76 2a 21 bd 60 a6 19 3d d2 7d 03 3d 79 81 2c bd
       -0.039347135 0.037512183 0.032102413 -0.042115662
000150 1d 79 01 3c 08 0f e9 bb 2e aa e3 bb a1 52 9e bc
       0.007902411 -0.0071123876 -0.0069477772 -0.01932651
000160 4f 01 85 3c a3 db cc bc 55 95 7d 3c 52 e8 ae 3c
       0.016235976 -0.025007075 0.015477498 0.021351013
000170 94 98 f7 3c c7 52 81 3c 7c 28 2b bd cf 5c e0 bc
       0.030224122 0.015786542 -0.041786656 -0.027388005
000180 44 b2 ac 3c d9 c7 10 3c 08 e7 06 bd 1c 28 c7 bc
       0.021081097 0.00883671 -0.032935172 -0.024311118
000190 d5 af 22 3d 11 0d e9 3c 77 ce 96 bc 43 19 2e bc
       0.039718468 0.028448613 -0.018408997 -0.01062614
0001a0 63 bc 24 bd d1 ee 46 ba 9b 3a 02 bd ab 64 05 bd
       -0.040218722 -0.0007588687 -0.03179417 -0.032566708
0001b0 f6 74 18 bb 78 b8 cf 3b 8f a4 8d bc bd 3a cd 3c
       -0.0023263074 0.006339129 -0.017290382 0.025052423
0001c0 2a 79 d2 bc 1a ea 1c 3d b4 05 ed 3c e8 d4 11 bd
       -0.025692541 0.038309194 0.028933384 -0.035603434
0001d0 58 29 2c bc d5 b3 f9 3a 65 d9 c9 3b b0 0f 24 3c
       -0.010507904 0.0019050787 0.0061599487 0.010013506
0001e0 51 ba 87 3c 5c bd 25 3b 1a c2 a8 bc 05 a9 a3 3c
       0.016568335 0.002528987 -0.020600367 0.019978056
0001f0 d3 e2 25 bd 55 ff cc bc 53 29 2d bc e8 79 a8 bc
       -0.04049952 -0.025024096 -0.0105689345 -0.020565942
000200 c6 fd 71 bc 67 bd 0d bd 60 24 13 bc c6 dc 13 3c
       -0.014769977 -0.034604456 -0.00898084 0.009024804
000210 f8 51 e1 bc 48 ff 0d bb be 96 f7 3c 7d 38 8e bb
       -0.027504906 -0.0021667052 0.030223247 -0.00434023
000220 60 cc 99 3a 40 b3 6e bb 6f fe 0b 3c 63 ea db 3c
       0.0011733882 -0.003642276 0.008544548 0.026845163
000230 74 cf 23 3d 03 a5 db 3c 68 2f 24 3d ee 1b 48 bb
       0.039992765 0.026812082 0.040084273 -0.0030534226
000240 84 59 1b bd aa f7 a3 bc 98 80 eb 3c 22 7e 8f b9
       -0.037927166 -0.020015556 0.028747842 -0.00027369062
000250 65 e9 ab bc 53 85 04 bd 07 d7 21 bd 04 f5 11 bd
       -0.020985315 -0.03235371 -0.039511707 -0.035634056
000260 13 4f 0c bc df ac bd 3c 59 fd ba 3c 48 c8 26 bd
       -0.008563775 0.02315372 0.022825884 -0.040718347
000270 cd be d7 3c 69 52 07 bd 4e 3d 12 bc 4a 3d 8c bc
       0.026336098 -0.033037577 -0.008925749 -0.017119069
000280 04 3d 05 bc 16 d1 07 bc 81 2e 1b bd 2f 51 15 bd
       -0.008132223 -0.008289596 -0.037886146 -0.036454376
000290 eb 7b d8 bb 3f 21 0f 3a 54 1e 9d bc a3 49 82 3c
       -0.006606569 0.0005459971 -0.0191795 0.015904253
0002a0 68 a6 1b bd 8c bb 3a bb b4 14 18 3d 81 13 8d bc
       -0.038000494 -0.0028493134 0.03712912 -0.017221214
0002b0 c6 28 1c 3d 83 83 7a 3c c5 10 1c bd 2e d4 da 3c
       0.038124822 0.015290144 -0.03810193 0.026712503
0002c0 f3 a4 9f bb ae 65 9a bc 62 49 0a 3d 1d bf 0b bd
       -0.0048719584 -0.018847313 0.03376139 -0.034117807
0002d0 e6 73 94 3b c7 d3 10 bc d7 fc f6 3c ef 17 41 3c
       0.0045304177 -0.008839554 0.03014986 0.011785491
0002e0 d2 30 a6 3c ae 4a 74 3c 24 58 26 bc a9 79 11 bc
       0.020286951 0.014910383 -0.01015285 -0.008879104
0002f0 d6 82 0e bd df 67 bb 3c 23 4e 09 3d 85 a6 ec 3c
       -0.034792744 0.022876678 0.033521783 0.028887996
000300 7c f7 f3 bc 4b cf f6 3a 28 d0 f3 bc e0 64 be bc
       -0.029781096 0.0018830089 -0.029762343 -0.02324146
000310 cf 89 c9 bc 75 65 6c 3c 3e 1b ce bc 89 77 71 ba
       -0.024601845 0.014428486 -0.025159474 -0.00092112325
000320 9e cc e8 3a 1a f4 de 3c 46 b9 02 bd 0c 71 ed bc
       0.0017761176 0.027216006 -0.03191497 -0.028984569
000330 d5 d4 c8 bc 62 15 f2 3c 61 a7 78 bc 04 de 11 3d
       -0.024515549 0.029551212 -0.015176625 0.03561212
000340 ca 22 7a 3c cc 2e af 3b e1 c6 a4 b9 2c be 08 bc
       0.015267083 0.005346155 -0.00031428694 -0.008346122
000350 14 94 ad 3b 1c f4 1d bc 88 88 9b b9 49 85 b0 3b
       0.0052971933 -0.00964072 -0.00029665628 0.0053869826
000360 ef 44 07 bd 8e 47 b5 bc 71 a4 0b 3d ea 57 0c bd
       -0.033024725 -0.022128846 0.03409237 -0.03426353
000370 d0 ae 46 bb 81 12 2b 3d 2d e1 79 3c 37 ae 9c 3a
       -0.0030316599 0.041765694 0.01525144 0.0011953776
000380 9d dd 15 bd aa 55 ab 3c a4 5a f6 bc b9 5b 44 bc
       -0.0365883 0.020914871 -0.030072518 -0.011984759
000390 76 16 68 bc b6 df cc bb bd 1f f2 39 fc a2 0e 3d
       -0.014165511 -0.0062522544 0.00046181484 0.034823403
0003a0 d5 b5 ac 3b 24 e5 1a 3d 24 92 d3 3c 61 a9 da bc
       0.0052706995 0.03781618 0.025826521 -0.026692094
0003b0 5f 1f 9b 3c df 7d f4 bc 41 96 92 bc 53 74 4b 3c
       0.018935857 -0.029845176 -0.017893912 0.012417871
0003c0 9f 67 64 3c 48 bd 01 3d 0a ae 5e bc 43 be 8d 38
       0.013940721 0.031674653 -0.013591299 6.758843e-05
0003d0 6b 0f b2 3c 0e 3e 27 bd 07 0e fa 3c 9c 00 0f bd
       0.021735867 -0.040830664 0.030524267 -0.03491269
0003e0 7e 8a 18 3a 62 36 eb bb 96 28 b6 bc a9 da b6 3b
       0.0005818977 -0.007178114 -0.02223615 0.0055802655
0003f0 73 00 0f 3d 03 35 4a bc c3 56 cd bc 6a d4 7f bc
       0.034912538 -0.012341741 -0.025065785 -0.015614608

bias f4 [6]
000000 cb 4e 17 bc ba e4 c4 bc 42 f3 b9 39 71 72 5a bc
       -0.009235094 -0.024034847 0.0003546719 -0.013332949
000010 e0 33 d5 3c c4 6d 0e bd
       0.026025712 -0.03477265
